nc: 20
depth_multiple: 1.0
width_multiple: 1.0
anchors: 
  - [12, 16, 19, 36, 40, 28], 
  - [36, 75, 76, 55, 72, 146], 
  - [142, 110, 192, 243, 459, 401]

backbone: 
  [-1, 1, 'Conv', [32, 3, 1]]
  [-1, 1, 'Conv', [64, 3, 2]]
  [-1, 1, 'Conv', [64, 3, 1]]
  [-1, 1, 'Conv', [111, 3, 2]]
  [-1, 1, 'Conv', [64, 1, 1]]
  [-2, 1, 'Conv', [64, 1, 1]]
  [-1, 1, 'Conv', [64, 3, 1]]
  [-1, 1, 'Conv', [64, 3, 1]]
  [-1, 1, 'Conv', [64, 3, 1]]
  [-1, 1, 'Conv', [64, 3, 1]]
  [[-1, -3, -5, -6], 1, 'Concat', [1]]
  [-1, 1, 'Conv', [141, 1, 1]]
  [-1, 1, 'MP', []]
  [-1, 1, 'Conv', [95, 1, 1]]
  [-3, 1, 'Conv', [125, 1, 1]]
  [-1, 1, 'Conv', [123, 3, 2]]
  [[-1, -3], 1, 'Concat', [1]]
  [-1, 1, 'Conv', [119, 1, 1]]
  [-2, 1, 'Conv', [119, 1, 1]]
  [-1, 1, 'Conv', [126, 3, 1]]
  [-1, 1, 'Conv', [120, 3, 1]]
  [-1, 1, 'Conv', [125, 3, 1]]
  [-1, 1, 'Conv', [118, 3, 1]]
  [[-1, -3, -5, -6], 1, 'Concat', [1]]
  [-1, 1, 'Conv', [154, 1, 1]]
  [-1, 1, 'MP', []]
  [-1, 1, 'Conv', [142, 1, 1]]
  [-3, 1, 'Conv', [158, 1, 1]]
  [-1, 1, 'Conv', [153, 3, 2]]
  [[-1, -3], 1, 'Concat', [1]]
  [-1, 1, 'Conv', [158, 1, 1]]
  [-2, 1, 'Conv', [155, 1, 1]]
  [-1, 1, 'Conv', [154, 3, 1]]
  [-1, 1, 'Conv', [150, 3, 1]]
  [-1, 1, 'Conv', [157, 3, 1]]
  [-1, 1, 'Conv', [153, 3, 1]]
  [[-1, -3, -5, -6], 1, 'Concat', [1]]
  [-1, 1, 'Conv', [169, 1, 1]]
  [-1, 1, 'MP', []]
  [-1, 1, 'Conv', [165, 1, 1]]
  [-3, 1, 'Conv', [172, 1, 1]]
  [-1, 1, 'Conv', [169, 3, 2]]
  [[-1, -3], 1, 'Concat', [1]]
  [-1, 1, 'Conv', [167, 1, 1]]
  [-2, 1, 'Conv', [156, 1, 1]]
  [-1, 1, 'Conv', [145, 3, 1]]
  [-1, 1, 'Conv', [145, 3, 1]]
  [-1, 1, 'Conv', [154, 3, 1]]
  [-1, 1, 'Conv', [150, 3, 1]]
  [[-1, -3, -5, -6], 1, 'Concat', [1]]
  [-1, 1, 'Conv', [166, 1, 1]]

head: 
  [-1, 1, 'SPPCSPC', [512]]
  [-1, 1, 'Conv', [164, 1, 1]]
  [-1, 1, 'nn.Upsample', ['None', 2, 'nearest']]
  [37, 1, 'Conv', [170, 1, 1]]
  [[-1, -2], 1, 'Concat', [1]]
  [-1, 1, 'Conv', [155, 1, 1]]
  [-2, 1, 'Conv', [160, 1, 1]]
  [-1, 1, 'Conv', [148, 3, 1]]
  [-1, 1, 'Conv', [155, 3, 1]]
  [-1, 1, 'Conv', [157, 3, 1]]
  [-1, 1, 'Conv', [157, 3, 1]]
  [[-1, -2, -3, -4, -5, -6], 1, 'Concat', [1]]
  [-1, 1, 'Conv', [162, 1, 1]]
  [-1, 1, 'Conv', [159, 1, 1]]
  [-1, 1, 'nn.Upsample', ['None', 2, 'nearest']]
  [24, 1, 'Conv', [155, 1, 1]]
  [[-1, -2], 1, 'Concat', [1]]
  [-1, 1, 'Conv', [127, 1, 1]]
  [-2, 1, 'Conv', [123, 1, 1]]
  [-1, 1, 'Conv', [123, 3, 1]]
  [-1, 1, 'Conv', [128, 3, 1]]
  [-1, 1, 'Conv', [149, 3, 1]]
  [-1, 1, 'Conv', [124, 3, 1]]
  [[-1, -2, -3, -4, -5, -6], 1, 'Concat', [1]]
  [-1, 1, 'Conv', [118, 1, 1]]
  [-1, 1, 'MP', []]
  [-1, 1, 'Conv', [114, 1, 1]]
  [-3, 1, 'Conv', [119, 1, 1]]
  [-1, 1, 'Conv', [64, 3, 2]]
  [[-1, -3, 63], 1, 'Concat', [1]]
  [-1, 1, 'Conv', [64, 1, 1]]
  [-2, 1, 'Conv', [64, 1, 1]]
  [-1, 1, 'Conv', [64, 3, 1]]
  [-1, 1, 'Conv', [103, 3, 1]]
  [-1, 1, 'Conv', [123, 3, 1]]
  [-1, 1, 'Conv', [125, 3, 1]]
  [[-1, -2, -3, -4, -5, -6], 1, 'Concat', [1]]
  [-1, 1, 'Conv', [127, 1, 1]]
  [-1, 1, 'MP', []]
  [-1, 1, 'Conv', [156, 1, 1]]
  [-3, 1, 'Conv', [149, 1, 1]]
  [-1, 1, 'Conv', [122, 3, 2]]
  [[-1, -3, 51], 1, 'Concat', [1]]
  [-1, 1, 'Conv', [125, 1, 1]]
  [-2, 1, 'Conv', [121, 1, 1]]
  [-1, 1, 'Conv', [118, 3, 1]]
  [-1, 1, 'Conv', [124, 3, 1]]
  [-1, 1, 'Conv', [166, 3, 1]]
  [-1, 1, 'Conv', [158, 3, 1]]
  [[-1, -2, -3, -4, -5, -6], 1, 'Concat', [1]]
  [-1, 1, 'Conv', [162, 1, 1]]
  [75, 1, 'RepConv', [165, 3, 1]]
  [88, 1, 'RepConv', [157, 3, 1]]
  [101, 1, 'RepConv', [152, 3, 1]]
  [[102, 103, 104], 1, 'IDetect', ['nc', 'anchors']]
